checkpoint_actor.pth (torch_old, 541437 bytes, 6 tensors)

fc1.weight f4 [400, 33]
0.105385825 -0.063674584 0.01992107 -0.021533241 0.013304072 0.0022758765 -0.04375348 -0.045231342
-0.023966903 -0.034676645 0.05449835 -0.017369194 0.03515133 -0.013108562 0.015384254 0.05060943
0.110640526 0.023227572 0.021467973 0.04767482 -0.013107477 -0.012424477 0.044095594 -0.015151592
-0.002526254 -0.019913455 -0.11171143 0.024163146 0.06606321 0.0027795732 0.041679777 -0.044687778
-0.49372646 0.05667498 0.11294239 0.0008936374 0.00202118 -0.01817315 -0.047962602 -0.015332623
-0.012197404 -0.10399156 0.022330126 -0.053005762 0.109373786 -0.015015763 0.016570725 0.14526926
-0.05080554 0.026707143 -0.005536983 0.088290416 -0.07411065 -0.0043999157 -0.009048198 -0.008340352
0.052800834 0.07664718 -0.01995569 -0.06499902 0.0146662 -0.00666352 0.031540904 -0.06348519
0.020164903 -0.12905362 0.052174997 0.01614092 -0.090997785 0.003874124 -0.04057414 -0.0070418953
0.0148907285 -0.033710074 -0.08357607 0.025356632 0.015956698 -0.014070542 0.026328176 -0.00088454294
-0.023569515 0.10417404 -0.012385401 -0.0012217772 -0.012420158 -0.020619243 -0.038396332 0.01522604
0.0128020765 0.006214204 -0.007588394 0.014350603 0.08634529 -0.10237278 -0.012718 -0.043569047
0.07293014 0.046266373 0.08731969 -0.073548034 -0.047340725 0.040296685 -0.017548367 -0.036609784
0.06614842 0.020824954 0.0022598421 0.007831501 0.0078103663 0.06561567 -0.06944364 0.03263177
-0.0012679124 0.04647917 -0.06783554 0.0019711114 0.050784953 0.0071161613 -0.030443091 0.021466458
-0.064387746 0.0053607887 0.040501293 -0.05243575 -0.001692743 0.02735836 0.02850765 -0.092423335
-0.043325204 -0.022302993 0.0069243014 -0.20443422 0.070170484 -0.052665103 -0.061567932 -0.040010538
-0.011090945 0.025828253 0.0031679184 -0.0020507365 -0.13303936 -0.04240322 0.069883615 0.020084534
-0.006120143 0.079712 -0.02361714 0.11302447 0.05534056 0.08441986 0.036938567 -0.06003964
0.046944797 0.028605403 0.034842256 0.04012889 -0.026334265 0.027377376 0.08551167 -0.0074348
0.015175402 -0.018799245 0.026046049 -0.03776164 -0.05978257 0.062361512 0.05258666 0.02685393
-0.09189536 -0.082186505 -0.05463183 0.024023952 0.033544578 0.061509788 0.09882713 0.048855912
0.013648099 -0.022867091 0.046734612 0.024473108 0.05993768 0.061487105 0.030375393 0.09303779
-0.104099445 0.013245101 -0.031771474 -0.059057098 0.078308135 0.07051156 -0.03308108 -0.13036855
-0.010512183 0.10236645 0.031735424 0.014715894 0.011481427 -0.14783612 -0.046087798 0.038215645
-0.048188087 -0.048473585 -0.012915446 0.027986826 0.01087162 0.0022590489 0.072854854 -0.1317944
0.025405103 0.073576905 -0.04115818 -0.03122963 -0.083516784 -0.013615371 -0.035074502 0.027266707
-0.034434866 -0.042161897 0.011513375 -0.05578563 -0.09931721 -0.0007356378 -0.13510959 0.0304278
0.024564778 0.036514644 -0.06440602 -0.02320372 0.017660521 0.0036783218 -0.06506914 0.011189283
-0.077711545 0.039353248 0.064942226 0.0011733121 -0.03401185 -0.02946393 -0.037473477 0.005459323
-0.020907292 -0.006700215 -0.026844338 0.05012598 0.09092999 -0.046747506 -0.121878825 0.00995295
0.04868926 0.04812399 -0.1027237 0.0455983 0.037787285 0.02365662 0.05821617 -0.008095933
00000000: 86d4 d73d d267 82bd 8331 a33c 7b66 b0bc
00000010: 53f9 593c df26 153b d936 33bd 8044 39bd
00000020: 3d56 c4bc 1909 0ebd a939 5f3d d749 8ebc
00000030: d7fa 0f3d 4bc5 56bc 3d0e 7c3c d54b 4f3d
00000040: 8097 e23d c047 be3c 9add af3c ac46 433d
00000050: bec0 56bc 0990 4bbc 959d 343d 623e 78bc
00000060: 828f 25bb 8b21 a3bc f6c8 e4bd caf1 c53c
00000070: 264c 873d 8029 363b 6ab8 2a3d 880a 37bd
00000080: b7c9 fcbe 0624 683d 574e e73d fe42 6a3a
00000090: c675 043b dcdf 94bc 6f74 44bd af35 7bbc
000000a0: 9fd7 47bc 87f9 d4bd abed b63c 921c 59bd
000000b0: 5dff df3d ad04 76bc 54bf 873c 77c1 143e
000000c0: 7819 50bd f0c8 da3c 946f b5bb 9bd1 b43d
000000d0: 53c7 97bd 2b2d 90bb e53e 14bc f9a5 08bc
000000e0: b045 583d 32f9 9c3d 1d7a a3bc 351e 85bd
000000f0: 804a 703c a859 dabb 0931 013d 8604 82bd
00000100: de30 a53c a226 04be 73b5 553d f639 843c
00000110: 0c5d babd 04e5 7d3b 1231 26bd b3bf e6bb
00000120: 3ef8 733c 9313 0abd ee29 abbd b6b8 cf3c
00000130: 9fb7 823c 2188 66bc 30ae d73c ace0 67ba
00000140: db14 c1bc 3359 d53d 23ec 4abc 0a24 a0ba
00000150: eb7d 4bbc b0e9 a8bc 7945 1dbd a476 793c
00000160: cdbf 513c 85a0 cb3b 10a8 f8bb cb1e 6b3c
00000170: cdd5 b03d d2a8 d1bd 295f 50bc 7575 32bd
00000180: 665c 953d cf81 3d3d aad4 b23d 5aa0 96bd
00000190: 59e8 41bd 230e 253d 98c1 8fbc 24f4 15bd
000001a0: d378 873d 1899 aa3c dc19 143b b24f 003c
000001b0: 1aee ff3b 8261 863d 7838 8ebd e4a8 053d
000001c0: 1530 a6ba f160 3e3d 5ced 8abd c32d 013b
000001d0: e203 503d b02e e93b ca63 f9bc 6dda af3c
000001e0: b9dd 83bd 8ea9 af3b afe4 253d dec6 56bd
000001f0: 08df ddba a41e e03c e088 e93c 7248 bdbd
00000200: c575 31bd c4b4 b6bc 40e5 e23b 3457 51be
00000210: 8bb5 8f3d 5db7 57bd a82e 7cbd 17e2 23bd
00000220: ccb6 35bc c695 d33c da9c 4f3b a665 06bb
00000230: 783b 08be 00af 2dbd 241f 8f3d 5288 a43c
00000240: 7b8b c8bb 0c40 a33d bb78 c1bc 6079 e73d
00000250: c8ac 623d 52e4 ac3d e54c 173d 20ec 75bd
00000260: 3049 403d e155 ea3c c1b6 0e3d 315e 243d
00000270: f5ba d7bc 8546 e03c be20 af3d 9f9f f3bb
00000280: 40a2 783c e000 9abc 865e d53c f3ab 1abd
00000290: 91de 74bd c96e 7f3d 1c65 573d c6fc db3c
000002a0: a233 bcbd 6651 a8bd a0c5 5fbd e1cd c43c
000002b0: 0a66 093d b0f1 7b3d e165 ca3d 231d 483d
000002c0: 479c 5f3c c453 bbbc cb6c 3f3d d47b c83c
000002d0: 3681 753d e7d9 7b3d d1d5 f83c 998a be3d
000002e0: 1732 d5bd fb01 593c ce22 02bd dbe5 71bd
000002f0: 0460 a03d 5d68 903d 0780 07bd 557f 05be
00000300: 4b3b 2cbc 80a5 d13d 01fd 013d ef1a 713c
00000310: 981c 3c3c 5a62 17be 8fc6 3cbd 0288 1c3d
00000320: df60 45bd 3d8c 46bd 4f9b 53bc a144 e53c
00000330: e11e 323c 8d0c 143b ed34 953d 1cf5 06be
00000340: 5d1e d03c 7daf 963d 7b95 28bd 48d5 ffbc
00000350: d90a abbd 0113 5fbc 48aa 0fbd 6e5e df3c
00000360: 930b 0dbd f4b1 2cbd 98a2 3c3c 797f 64bd
00000370: d266 cbbd d1d7 40ba 2b5a 0abe b943 f93c
00000380: 133c c93c 6190 153d 4ee7 83bd ba15 bebc
00000390: ccac 903c 0010 713b f842 85bd 4153 373c
000003a0: 3b27 9fbd df30 213d 6e00 853d d2c9 993a
000003b0: 0250 0bbd 575e f1bc ca7d 19bd 1fe4 b23b
000003c0: c545 abbc 7a8d dbbb a8e8 dbbc e650 4d3d
000003d0: 8139 ba3d 507a 3fbd 9b9b f9bd b311 233c
000003e0: 646e 473d a91d 453d ce60 d2bd 48c5 3a3d
000003f0: d7c6 1a3d 87cb c13c 1474 6e3d cea4 04bc

fc1.bias f4 [400]
-0.12208247 -0.04615943 0.089995146 -0.15791851 -0.03644237 0.12963624 -0.06988673 -0.15411386
-0.12538542 -0.063559696 -0.0634698 0.056303814 0.17993324 0.1237893 0.10336832 -0.084406756
0.057015352 0.17659962 0.03934548 0.073218554 -0.01591314 0.036545407 -0.114306554 -0.20663255
0.12595259 0.06190508 0.11820795 0.12972343 -0.056018446 0.02697873 0.006642998 -0.10328692
0.09886016 -0.10608374 -0.17248164 0.14377978 -0.08225886 0.11383622 -0.13706219 -0.03272052
0.09695765 -0.05389959 0.13466296 -0.08178006 -0.16610117 -0.05245329 -0.16503374 -0.10292829
-0.059466533 0.08829196 0.0005540982 0.18146384 -0.013861338 -0.067005046 0.0049788766 -0.08512888
-0.011440561 -0.03122005 0.05318335 0.028871829 -0.006278003 0.11906965 0.1574149 -0.13444498
0.105333336 0.04141905 0.026691416 -0.0047505433 -0.031969175 -0.040682606 0.055947464 0.06176094
0.07778665 -0.13768579 -0.17679325 -0.00485485 -0.017217536 -0.15730993 0.119715795 0.060462125
0.0464896 0.089405805 0.14686267 -0.078835815 0.04228232 0.16197127 0.024717249 -0.199765
0.022685321 -0.08663137 -0.1354632 -0.11748615 0.038373135 0.19840454 0.15744747 -0.078981996
-0.0073537524 -0.09980907 0.009999863 -0.025630277 0.12202771 -0.15486336 -0.1284988 0.04181155
0.15200382 0.06933813 0.19650835 -0.12290241 -0.021973325 -0.15958723 -0.101779014 -0.031396735
0.105049446 -0.03216888 0.12024034 0.19145153 0.06953613 -0.092448436 0.029985119 0.08846622
0.0889391 -0.059744902 0.0049690236 0.013093185 -0.16738115 -0.22027858 0.022459384 -0.13677765
0.049216025 0.11452872 -0.017929362 -0.13030888 -0.03739484 0.048504815 0.049557544 0.17002341
0.043357298 0.18939613 0.015085971 0.124578305 0.06731202 0.041480828 -0.06459448 -0.13226657
-0.21336487 -0.12675038 0.09491438 0.15937558 -0.06925002 -0.073705286 0.043828446 -0.21949103
0.04541065 0.11543836 -0.03637116 0.03175277 0.07640276 0.19717564 0.066154525 0.15019068
-0.099026516 0.066254035 0.12432317 0.011564645 0.15754284 0.09757304 0.120301545 -0.073485374
-0.16083035 -0.102085516 0.106957406 0.18642405 -0.055726744 -0.15073152 -0.097688004 -0.09501961
-0.01575516 0.1181777 0.18508513 0.15050755 -0.08333485 0.12846215 0.17155983 0.10398742
-0.09943629 0.026082333 -0.0938548 0.19709739 -0.13582017 0.08858866 0.01940267 -0.034582615
0.1537224 0.18613242 -0.08962608 0.061712455 -0.1459748 0.09648834 -0.0041661602 -0.16851813
0.17948446 0.11829104 -0.029297391 0.18705912 -0.068380415 -0.0657319 0.05295714 -0.14301574
-0.105238385 0.03826889 -0.1470616 0.16554391 0.14953804 0.035912342 0.1147345 -0.08622089
-0.10501398 -0.08078601 0.0076181786 0.16859053 -0.006067958 0.14545311 0.13115542 0.05112235
0.087848686 -0.19012456 0.08060222 -0.12969239 0.08510816 0.06301982 0.1437682 -0.07792463
-0.058684897 -0.12668152 -0.112024054 0.103865944 -0.01131267 -0.02564076 -0.17068604 0.02492777
-0.0033924635 -0.0009907857 -0.1577573 0.17322432 0.011400477 -0.08124481 -0.119785294 -0.067127705
0.118199356 0.12157667 -0.2157647 0.052502513 -0.1265972 0.044641603 0.10554362 -0.0039320528
00000000: 6006 fabd ac11 3dbd 604f b83d 64b5 21be
00000010: 9844 15bd 5dbf 043e c620 8fbd 06d0 1dbe
00000020: 0965 00be 962b 82bd 74fc 81bd d49e 663d
00000030: 6b40 383e 3f85 fd3d c5b2 d33d 73dd acbd
00000040: ee88 693d 88d6 343e ba28 213d 9cf3 953d
00000050: 465c 82bc a3b0 153d 8e19 eabd 7c97 53be
00000060: b7f9 003e 2e90 7d3d 0217 f23d 38d6 043e
00000070: 9973 65bd 7f02 dd3c 82ad d93b 1888 d3bd
00000080: 3277 ca3d 6f42 d9bd 079f 30be 023b 133e
00000090: 5577 a8bd f722 e93d 085a 0cbe f405 06bd
000000a0: bb91 c63d d1c5 5cbd 16e5 093e 4e7c a7bd
000000b0: 6d16 2abe 43d9 56bd 9bfe 28be 11cc d2bd
000000c0: 2e93 73bd 6ad2 b43d e740 113a a8d1 393e
000000d0: aa1a 63bc f139 89bd d825 a33b 0d58 aebd
000000e0: 3171 3bbc 31c1 ffbc c9d6 593d 9d84 ec3c
000000f0: b5b7 cdbb cada f33d 5f31 213e f2ab 09be
00000100: 01b9 d73d 06a7 293d f5a7 da3c 72aa 9bbb
00000110: 1cf2 02bd cea2 26bd 2b29 653d 0af9 7c3d
00000120: 9b4e 9f3d 81fd 0cbe 4a09 35be 6f15 9fbb
00000130: ca0b 8dbc db15 21be 8e2d f53d 22a7 773d
00000140: e16b 3e3d 641a b73d 2b63 163e ac74 a1bd
00000150: 3a30 2d3d ccdb 253e d47b ca3c 328f 4cbe
00000160: 91d6 b93c ca6b b1bd ddb6 0abe 949c f0bd
00000170: 262d 1d3d 8f2a 4b3e e939 213e 50c1 a1bd
00000180: bff7 f0bb b368 ccbd 77d6 233c 96f6 d1bc
00000190: aae9 f93d 8094 1ebe 3095 03be 9642 2b3d
000001a0: e4a6 1b3e 2601 8e3d 7c39 493e 42b4 fbbd
000001b0: 6701 b4bc d66a 23be 8471 d0bd dd99 00bd
000001c0: 2a24 d73d 84c3 03bd 9140 f63d df0b 443e
000001d0: f568 8e3d 9b55 bdbd 5aa3 f53c c72d b53d
000001e0: b425 b63d 12b7 74bd 31d3 a23b cc84 563c
000001f0: f765 2bbe b590 61be befc b73c 710f 0cbe
00000200: be96 493d 098e ea3d 99e0 92bc b16f 05be
00000210: 552b 19bd fcac 463d dafc 4a3d 9e1a 2e3e
00000220: 6c97 313d 0ff1 413e 262b 773c e922 ff3d
00000230: e2da 893d cde7 293d 1c4a 84bd e370 07be
00000240: 527c 5abe daca 01be 7862 c23d 5a33 233e
00000250: f4d2 8dbd ccf2 96bd 7585 333d 42c2 60be
00000260: 8500 3a3d f26a ec3d edf9 14bd 310f 023d
00000270: 0d79 9c3d 69e8 493e 067c 873d 96cb 193e
00000280: 6ace cabd 32b0 873d 259d fe3d a379 3d3c
00000290: e952 213e 60d4 c73d a860 f63d 807f 96bd
000002a0: b6b0 24be 3612 d1bd 7c0c db3d f2e5 3e3e
000002b0: ba41 64bd 5d59 1abe a610 c8bd a499 c2bd
000002c0: f710 81bc 2607 f23d f586 3d3e a71e 1a3e
000002d0: 76ab aabd 958b 033e 61ad 2f3e 5bf7 d43d
000002e0: 41a5 cbbd 9eaa d53c f236 c0bd e6d3 493e
000002f0: 7114 0bbe f96d b53d 59f2 9e3c 80a6 0dbd
00000300: 6869 1d3e 7f99 3e3e e18d b7bd 33c6 7c3d
00000310: 6b7a 15be ae9b c53d 4984 88bb 0490 2cbe
00000320: c6ca 373e 9342 f23d 1501 f0bc 6d8c 3f3e
00000330: 080b 8cbd 729e 86bd 96e9 583d b872 12be
00000340: 3987 d7bd d7bf 1c3d 5197 16be 5884 293e
00000350: 8020 193e d218 133d ecf9 ea3d 9494 b0bd
00000360: 9211 d7bd 2373 a5bd eaa1 f93b ffa2 2c3e
00000370: b9d5 c6bb a9f1 143e 9b4d 063e ab65 513d
00000380: 03ea b33d 03b0 42be c712 a53d 15ce 04be
00000390: 304d ae3d 8910 813d f937 133e f396 9fbd
000003a0: 935f 70bd cdb8 01be de6c e5bd abb7 d43d
000003b0: c758 39bc 920c d2bc 52c8 2ebe 5335 cc3c
000003c0: 1854 5ebb 40dd 81ba 218b 21be b761 313e
000003d0: 11c9 3a3c ae63 a6bd fe51 f5bd 407a 89bd
000003e0: 8112 f23d 30fd f83d 6cf1 5cbe e00c 573d
000003f0: b2a2 01be 1dda 363d 4127 d83d 73d8 80bb

fc2.weight f4 [300, 400]
0.0633376 -0.07796192 -0.016661182 -0.03625112 0.045159843 -0.01154988 -0.0032965725 -0.07337098
-0.04275499 0.055448692 0.018634366 -0.08693068 -0.020326588 0.027298037 0.106101476 0.07028215
-0.045810267 0.18001346 -0.05929262 0.11099512 -0.08682785 -0.13872722 0.012230867 0.16506068
-0.05520506 -0.032105155 -0.02175851 -0.05131207 -0.011250656 -0.03311969 0.036582872 -0.019520583
-0.050104376 0.06243663 -0.08770597 -0.019642234 0.00031671138 -0.0024488813 -0.13739038 0.091790214
-0.09272569 0.0008524555 -0.022125065 0.016366843 0.037588973 0.035947856 -0.14521359 0.072782405
0.047482856 -0.066775374 0.046216805 -0.10274926 0.08239467 0.028027942 -0.017470544 0.20708118
0.08854191 0.030103706 -0.0386526 0.16231333 -0.07292236 -0.011842267 0.06407367 0.0339981
-0.021271687 -0.057425357 0.0518128 0.013529083 -0.07733446 -0.053749148 -0.043391526 0.14653282
-0.0619972 -0.022371622 -0.09733014 0.0018402368 0.048819907 0.0062805065 -0.049663246 0.024092337
-0.17526856 0.105891794 -0.07521184 -0.032754306 0.028225496 0.035968583 0.0053958367 -0.11109617
-0.035186425 -0.085564025 -0.0027680767 -0.053640075 0.1531869 0.068291575 0.029901588 0.008627807
0.06243268 -0.01754096 -0.11406384 0.07339803 0.004775148 0.084122255 0.094376 0.06790289
-0.10749327 -0.07538739 0.09529274 0.066068314 0.0017327484 -0.078890845 0.04362814 -0.07906807
-0.060375758 0.05687272 0.053053003 -0.06418754 -0.13301837 -0.11787574 0.0026368413 -0.010458024
-0.022363165 -0.12863885 0.035363678 -0.016573904 0.0060765776 0.10533528 -0.03980995 -0.011934478
-0.0029576267 0.042797565 -0.039864697 -0.034348093 0.011687855 -0.05684487 0.068086565 0.029190963
-0.00779171 -0.0483446 0.14735308 0.07241282 -0.0001676846 0.10721968 0.023580737 -0.16004255
-0.047110744 -3.9012633e-05 0.096249074 0.04467916 -0.059094068 -0.035587482 0.009995502 0.15506527
0.029513277 0.013095017 0.16869542 0.0174508 0.055372335 -0.0049585113 -0.056605525 0.0024647552
0.07168845 -0.021973198 -0.05010739 0.069547534 0.004408348 0.16311346 -0.031729538 0.06686922
-0.02406017 0.12685438 0.07430659 -0.05363976 0.05933633 -0.023713741 -0.01178574 -0.1039698
0.0025165016 0.096401975 0.12255027 0.042986773 0.071213946 0.065998055 0.06961816 0.025408497
-0.026679792 0.034437478 -0.06537658 -0.027609067 0.012459523 0.049685888 -0.110453665 0.06359059
0.03222587 0.07761125 0.16730766 -0.1279898 -0.08809399 0.005378831 -0.0009776676 -0.1153495
0.08196654 -0.009005765 -0.21562298 0.020841178 0.0581615 -0.13723725 0.040178068 -0.06509832
0.18448901 0.15457273 -0.04979379 -0.030504033 -0.07750504 -0.035478838 0.09685851 -0.06926832
-0.028944518 -0.094978884 0.09031876 0.10691228 0.023225538 0.035656594 0.07373132 -0.0980084
0.09072591 -0.042771164 -0.021316146 0.16494176 0.103537194 -0.08203311 0.06372621 0.08559465
-0.018740622 0.011543945 0.11879433 -0.057469625 0.13977118 0.0044854535 -0.09074138 0.07481295
-0.20826244 0.022115653 0.15805118 0.04161953 0.05511189 -0.107393615 0.012653572 0.061380368
-0.04346872 0.03520071 -0.009695374 0.12541974 0.050221752 0.0346829 -0.033525553 0.15802774
00000000: 25b7 813d 80aa 9fbd 087d 88bc 0e7c 14bd
00000010: 87f9 383d b53b 3dbc 4f0b 58bb 8643 96bd
00000020: db1f 2fbd 2b1e 633d 19a7 983c b608 b2bd
00000030: f283 a6bc 22a0 df3c bb4b d93d 16f0 8f3d
00000040: 8ca3 3bbd 7355 383e d1dc 72bd 6951 e33d
00000050: cdd2 b1bd 820e 0ebe f963 483c ab05 293e
00000060: b31e 62bd b280 03bd e73e b2bc 9b2c 52bd
00000070: ac54 38bc 83a8 07bd ecd7 153d a1e9 9fbc
00000080: 3f3a 4dbd 8dbd 7f3d 309f b3bd c0e8 a0bc
00000090: 480c a639 697d 20bb 10b0 0cbe 82fc bb3d
000000a0: f7e6 bdbd 5277 5f3a a03f b5bc c213 863c
000000b0: e5f6 193d 0f3e 133d dfb2 14be f10e 953d
000000c0: 627d 423d 87c1 88bd d54d 3d3d 346e d2bd
000000d0: 89be a83d db9a e53c 631e 8fbc 170d 543e
000000e0: 7655 b53d 0c9c f63c 3052 1ebd 7735 263e
000000f0: 5158 95bd 1106 42bc 0e39 833d 9741 0b3d
00000100: f641 aebc da36 6bbd a939 543d 16a9 5d3c
00000110: 8861 9ebd 1128 5cbd 50bb 31bd b30c 163e
00000120: c7f0 7dbd b144 b7bc 0655 c7bd 1a34 f13a
00000130: 62f7 473d b5cc cd3b b06b 4bbd 4b5d c53c
00000140: 9a79 33be ccdd d83d aa08 9abd 6129 06bd
00000150: 2839 e73c cb53 133d 8fcf b03b 6486 e3bd
00000160: a41f 10bd 313c afbd 9f68 35bb b2b5 5bbd
00000170: 07dd 1c3e 74dc 8b3d 2df4 f43c a55b 0d3c
00000180: 69b9 7f3d 0fb2 8fbc 4d9a e9bd b551 963d
00000190: d878 9c3b 4a48 ac3d 3448 c13d ac10 8b3d
000001a0: 6e25 dcbd b464 9abd d728 c33d d34e 873d
000001b0: 631d e33a 8691 a1bd 6cb3 323d 71ee a1bd
000001c0: 924c 77bd 5ff3 683d 1b4e 593d c274 83bd
000001d0: f835 08be d668 f1bd dbce 2c3b 2258 2bbc
000001e0: f532 b7bc e7b9 03be 81d9 103d ffc5 87bc
000001f0: 071e c73b 06ba d73d c20f 23bd d488 43bc
00000200: bed4 41bb 804c 2f3d 2a49 23bd 96b0 0cbd
00000210: 6b7e 3f3c 2bd6 68bd f870 8b3d e321 ef3c
00000220: 9a51 ffbb fd04 46bd bae3 163e 2c4d 943d
00000230: 7ed4 2fb9 fe95 db3d 642c c13c 32e2 23be
00000240: 32f7 40bd 7fa1 23b8 3c1e c53d 7f01 373d
00000250: 9f0c 72bd 2ec4 11bd 2dc4 233c 6ec9 1e3e
00000260: d4c5 f13c 7b8c 563c 7ebe 2c3e fbf4 8e3c
00000270: 1ace 623d 027b a2bb 32db 67bd bb87 213b
00000280: 65d1 923d 2301 b4bc 683d 4dbd f06e 8e3d
00000290: e773 903b 3707 273e d5f6 01bd bbf2 883d
000002a0: d519 c5bc 1de6 013e 0e2e 983d 5db5 5bbd
000002b0: a70a 733d 5243 c2bc fa18 41bc 1eee d4bd
000002c0: e4eb 243b 666e c53d a3fb fa3d e612 303d
000002d0: 9ed8 913d fd29 873d f793 8e3d 7b25 d03c
000002e0: 948f dabc 500e 0d3d 28e4 85bd 692c e2bc
000002f0: 0723 4c3c 6e83 4b3d 8835 e2bd c93b 823d
00000300: 46ff 033d a6f2 9e3d b352 2b3e c20f 03be
00000310: 9f6a b4bd e840 b03b 1525 80ba 5c3c ecbd
00000320: 13de a73d eb8c 13bc 45cc 5cbe 1ebb aa3c
00000330: c13a 6e3d ec87 0cbe c291 243d 4552 85bd
00000340: b0ea 3c3e 5048 1e3e 93f4 4bbd 98e3 f9bc
00000350: f6ba 9ebd 4252 11bd c15d c63d 8ddc 8dbd
00000360: 0e1d edbc 4a84 c2bd 0bf9 b83d d3f4 da3d
00000370: 7c43 be3c a60c 123d 7200 973d a1b8 c8bd
00000380: 82ce b93d d130 2fbd 339f aebc 7ee6 283e
00000390: 4f0b d43d fa00 a8bd e382 823d 3f4c af3d
000003a0: ef85 99bc d122 3d3c 714a f33d 4565 6bbd
000003b0: 2d20 0f3e b6fa 923b 9ed6 b9bd 8837 993d
000003c0: c042 55be e32b b53c 2bd8 213e 3e79 2a3d
000003d0: 01bd 613d 2ff1 dbbd ed50 4f3c fb69 7b3d
000003e0: 420c 32bd 9f2e 103d 59d9 1ebc 086e 003e
000003f0: 53b5 4d3d a80f 0e3d 1752 09bd 06d2 213e

fc2.bias f4 [300]
0.014208719 0.07909014 0.053219054 -0.025330639 0.044958968 0.06266304 0.07863962 0.057208456
0.003606706 0.06987132 -0.040878847 0.041901097 0.02300108 0.019966988 -0.01476571 -0.035652462
0.009938071 -0.026569491 0.0036065404 0.025370637 0.010019113 0.035912447 0.026169445 0.0109181935
-0.027832013 -0.033757575 -0.025668293 0.04728885 0.06791251 0.033110056 0.03942785 0.059481446
-0.018884728 0.05088032 -0.039859064 -0.034304153 0.012114014 -0.018059785 0.023791835 0.011654612
0.0029672517 -0.04530417 0.00039687613 0.033228688 0.039888933 0.027609356 0.009535892 0.039492503
0.03544347 -0.055211615 -0.017335946 -0.01070166 0.03212882 -0.0667624 -0.0116216345 0.06526449
-0.019105913 0.08045176 0.0095433695 0.038378134 0.041074574 0.0046228166 -0.0036656493 0.018175062
-0.023980437 -0.047209904 0.007109485 0.09296792 0.022841038 -0.026086522 0.06315099 -0.015086017
-0.041420147 -0.015957668 0.04042159 0.00958834 0.02277383 0.056843176 -0.011481882 0.068017125
-0.008596398 0.016065927 0.035791676 0.07734864 0.019598486 -0.020290086 0.018868653 0.026686255
-0.023424312 0.00210665 -0.0035536564 0.022914836 0.07585929 -0.029153394 -0.020989828 -0.0021942512
0.046399117 -0.026664684 0.061868202 0.069664545 -0.023949038 -0.00021262125 -0.020105977 0.10592629
0.0050664754 0.0340104 -0.033821408 0.04450968 -0.052706428 0.028998125 -0.02390016 0.025270121
0.029273946 -0.058468413 -0.009991782 0.03173691 0.029529363 -0.016125947 0.01521726 0.03256382
0.02538268 0.044746466 0.007059664 0.03909051 0.01528738 0.010464024 -0.046026397 0.090987034
-0.033385348 0.044960782 -0.016536761 -0.008693114 0.07043471 0.074532375 -0.03406736 0.06624613
0.030805964 -0.024953589 -0.035445776 -0.011878723 0.02124753 -0.008737852 -0.006195205 0.08504515
0.0012315942 0.042645775 0.039139073 0.017887408 0.034276795 -0.0022484332 0.024799058 0.066910215
-0.012759306 0.076234035 -0.007676229 0.04578829 0.023888964 0.037346177 -0.016334023 0.05739484
0.02276662 0.06397416 -0.0031529076 0.027345056 -0.040605694 0.0007625387 0.05258185 -0.019906316
-0.011491702 -0.01953627 0.031396326 0.060824603 0.0074013183 0.057086494 -0.0004467743 -0.06658283
0.051759876 -0.011976999 0.06095791 -0.026408162 -0.0030188935 0.055996127 -0.042639196 -0.030245136
-0.021216583 -0.040911272 -0.04711399 0.07934671 -0.07847645 0.0147909075 -0.007564138 0.02494947
0.06996929 -0.051892824 0.059386887 0.01418043 -0.0501081 0.04460111 0.01523664 -0.0003320124
0.006084417 -0.0028459656 0.06738273 0.019597284 -0.02783744 -0.03338728 -0.012522344 -0.0005637922
-0.0046318313 -0.042671934 0.11394269 -0.04883159 -1.5148527e-05 0.078094214 0.0020171534 0.030299343
0.04059855 0.061429866 0.08342125 -0.026247919 -0.037086204 0.023378728 0.057536878 0.006981216
0.049326096 -0.07154045 -0.06330442 0.0554646 -0.040858034 0.04520599 0.018643305 0.057776947
-0.052072935 0.07117145 0.0124064125 0.0011776137 0.069410704 -0.011370783 0.0848908 0.032985248
0.017327962 -0.017217454 0.027635632 -0.0046112915 -0.027559083 -0.009459715 -0.067362316 0.02707403
0.07269542 -0.032032195 -0.02520529 -0.0030161466 0.040528666 -0.013366001 -0.007962729 0.032151133
00000000: b0cb 683c 03fa a13d 39fc 593d 3382 cfbc
00000010: e526 383d 7b55 803d cf0d a13d 6a53 6a3d
00000020: 7c5e 6c3b b218 8f3d 9470 27bd 7ca0 2b3d
00000030: c36c bc3c cf91 a33c e0eb 71bc 5108 12bd
00000040: 4ad3 223c 43a8 d9bc b55b 6c3b 15d6 cf3c
00000050: 3527 243c ee18 133d 4e61 d63c 39e2 323c
00000060: f6ff e3bc 6245 0abd 5046 d2bc f4b1 413d
00000070: b715 8b3d 699e 073d 197f 213d d1a2 733d
00000080: 25b4 9abc e267 503d 4243 23bd 8382 0cbd
00000090: db79 463c 1df2 93bc 18e7 c23c fcf2 3e3c
000000a0: 3976 423b de90 39bd d013 d039 ce1a 083d
000000b0: 9462 233d 042d e23c 6e3c 1c3c e4c2 213d
000000c0: 2c2d 113d 9325 62bd 1d04 8ebc 0456 2fbc
000000d0: 8299 033d baba 88bd ab68 3ebc 64a9 853d
000000e0: 0184 9cbc e4c3 a43d cb5b 1c3c 6432 1d3d
000000f0: d03d 283d ff7a 973b 643b 70bb dee3 943c
00000100: 9f72 c4bc 2c5f 41bd aff6 e83b f765 be3d
00000110: 211d bb3c 67b3 d5bc 4e55 813d 572b 77bc
00000120: 2ca8 29bd a8b9 82bc 1c91 253d 6a18 1d3c
00000130: 2f90 ba3c 64d4 683d 811e 3cbc 904c 8b3d
00000140: e8d7 0cbc b19c 833c 4b9a 123d f768 9e3d
00000150: 018d a03c 6537 a6bc 6f92 9a3c 229d da3c
00000160: 58e4 bfbc b90f 0a3b 76e4 68bb e5b7 bb3c
00000170: 1e5c 9b3d 19d3 eebc dcf2 abbc 6dcd 0fbb
00000180: 000d 3e3d e56f dabc 8369 7d3d 49ac 8e3d
00000190: c630 c4bc 15f3 5eb9 4ab5 a4bc e2ef d83d
000001a0: ad04 a63b 7d4e 0b3d 5188 0abd c84f 363d
000001b0: b2e2 57bd 7a8d ed3c 45ca c3bc 4903 cf3c
000001c0: eacf ef3c 937c 6fbd 92b4 23bc 90fe 013d
000001d0: 90e7 f13c 901a 84bc d151 793c a461 053d
000001e0: 57ef cf3c 1248 373d c154 e73b 5f1d 203d
000001f0: eb77 7a3c 4c71 2b3c 2d86 3cbd 6957 ba3d
00000200: 13bf 08bd cc28 383d 1a78 87bc 906d 0ebc
00000210: 1340 903d 6ea4 983d 378a 0bbd 0dac 873d
00000220: ca5c fc3c 786b ccbc 972f 11bd fa9e 42bc
00000230: 4d0f ae3c 3529 0fbc 2501 cbbb 272c ae3d
00000240: 726d a13a 56ad 2e3d 4b50 203d 9d88 923c
00000250: d365 0c3d 735a 13bb 6527 cb3c 3908 893d
00000260: 680c 51bc 9720 9c3d e088 fbbb 818c 3b3d
00000270: cab2 c33c 4ef8 183d eece 85bc da16 6b3d
00000280: 1081 ba3c e204 833d 03a1 4ebb bd02 e03c
00000290: 2852 26bd 1be5 473a 1160 573d 9212 a3bc
000002a0: b147 3cbc 870a a0bc 6f99 003d 3823 793d
000002b0: c286 f23b 87d3 693d 083d eab9 945c 88bd
000002c0: 2a02 543d 2d3b 44bc 00af 793d ee55 d8bc
000002d0: a1d8 45bb 325c 653d 70a6 2ebd a6c4 f7bc
000002e0: 66ce adbc 9492 27bd 99fa 40bd 8780 a23d
000002f0: 43b8 a0bd 9055 723c 97dc f7bb d562 cc3c
00000300: 0f4c 8f3d 928d 54bd aa3f 733d 0955 683c
00000310: 273e 4dbd a7af 363d 1aa3 793c f311 aeb9
00000320: ca5f c73b 6183 3abb f5ff 893d 7c8a a03c
00000330: 580b e4bc 1ac1 08bd 842a 4dbc 74cb 13ba
00000340: 9ec6 97bb c4c8 2ebd c95a e93d a203 48bd
00000350: 6e26 7eb7 dcef 9f3d 3832 043b 5436 f83c
00000360: aa4a 263d e29d 7b3d c3d8 aa3d e005 d7bc
00000370: b4e7 17bd bf84 bf3c caab 6b3d afc2 e43b
00000380: 290a 4a3d cd83 92bd bfa5 81bd d92e 633d
00000390: c15a 27bd eb29 393d d8b9 983c 85a7 6c3d
000003a0: 6e4a 55bd 56c2 913d 4444 4b3c 295a 9a3a
000003b0: 3327 8e3d 854c 3abc 3adb ad3d 8a1b 073d
000003c0: 5ff3 8d3c 9e0b 8dbc 1f64 e23c 511a 97bb
000003d0: 96c3 e1bc ecfc 1abc 41f5 89bd 5bca dd3c
000003e0: 56e1 943d 3134 03bd 537b cebc 8baa 45bb
000003f0: 6301 263d 12fd 5abc 1b76 02bc e8b0 033d

fc3.weight f4 [4, 300]
-0.16273743 0.06525537 0.18794386 -0.08306331 -0.08142337 -0.08859672 -0.009505086 0.0476777
0.010277792 -0.019175604 -0.09453783 0.14007397 0.08292184 -0.17817637 -0.051305704 -0.12662648
-0.14619999 -0.106719576 -0.06325257 0.14115937 -0.1512908 0.08099041 -0.08059137 -0.100506105
-0.12907745 -0.083588436 -0.1736638 -0.116358444 0.24527359 -0.042124037 -0.12655367 -0.06595751
-0.12959626 -0.13543284 -0.04151951 -0.15868752 -0.116301395 -0.13350987 -0.1277746 0.010237635
-0.09217519 0.08298311 -0.073261164 -0.13452892 0.026040187 -0.101957776 -0.0077102436 0.059497062
0.07883027 0.06524277 -0.03287146 -0.16041413 -0.09447563 0.16154568 0.1232716 -0.1635673
0.06905354 0.013417339 0.079496 -0.04668407 -0.11586683 0.08222512 0.06940367 -0.08154296
-0.14692216 -0.06844137 -0.0846728 0.10764043 0.071813256 -0.07483042 0.1890659 0.21150416
-0.19904707 -0.05843671 -0.026294293 -0.1938942 0.022059776 0.20526388 0.08605617 -0.105704084
0.17982714 -0.036666058 0.080561854 -0.06797772 -0.11253549 -0.06661265 -0.105301104 -0.07046488
-0.12400789 -0.11765497 -0.012256265 -0.11067868 -0.019550884 -0.14689684 -0.09385993 -0.09621493
-0.1656579 -0.10959546 -0.152726 0.016844781 0.07983673 -0.012084091 -0.15634768 -0.020081155
0.1352383 -0.14185454 -0.17762384 -0.04214259 -0.13033544 -0.038648084 0.07092486 -0.09994477
-0.1290728 -0.094010465 -0.0054630945 -0.060939204 0.08726381 -0.12597361 0.08117557 -0.11926511
0.11748429 0.1547658 0.08859882 -0.096457794 -0.11425258 -0.0920456 0.00050745433 0.06492619
0.06815934 0.16365075 -0.16038416 0.06740663 -0.02125976 0.067265525 -0.11025454 -0.17764425
0.07401102 0.043851696 -0.20664005 -0.08486119 -0.09181449 -0.1273555 0.08452345 -0.037495606
0.058722403 0.14208618 -0.13127735 0.08622451 0.09958043 0.09324046 -0.13988142 -0.11025765
-0.078242086 -0.08619438 -0.122972965 0.055973846 -0.023496695 0.02763003 0.01815408 -0.053941444
0.07031991 -0.03824451 -0.10145653 -0.12678888 -0.17328611 0.061954606 0.09197805 -0.14172946
-0.027517436 -0.118655555 0.06926787 -0.07547387 0.099263534 -0.14182751 -0.15056513 0.011686967
-0.10306354 0.0645233 0.040261403 -0.029686917 0.16896375 0.040222924 -0.11793625 -0.13551748
-0.14325345 -0.022320464 0.10372135 -0.07437828 -0.071078345 -0.077165596 -0.10266131 0.07999339
-0.17323045 -0.02705145 -0.04885832 0.21295145 0.07478071 -0.16326165 -0.1408958 0.08741706
-0.113200895 0.044151805 -0.12823367 -0.12787603 -0.097281806 -0.02599494 -0.15387239 0.08639691
-0.18512104 -0.15484902 -0.082149915 -0.15175231 0.05690287 0.08706385 0.09649414 -0.0917614
-0.046517726 0.06312474 0.07052328 -0.05605252 0.14123413 0.07687247 0.076039635 0.08632238
-0.070919834 0.07859003 -0.024773704 -0.086160846 -0.10037446 -0.071349226 0.053979952 -0.075135455
0.10311819 -0.0451258 0.09261007 0.19570419 0.00061033893 0.075945325 0.015238762 0.030613823
-0.11707914 -0.07998141 -0.044707857 -0.12009233 -0.1341582 0.10268733 -0.026580386 -0.009865499
0.020156702 -0.16337967 -0.12201102 -0.16330189 -0.01940427 -0.12826169 0.027935693 0.038017146
00000000: a4a4 26be 9ca4 853d 5b74 403e 191d aabd
00000010: 4cc1 a6bd 3272 b5bd 38bb 1bbc b149 433d
00000020: 2f64 283c 2816 9dbc 0d9d c1bd 8d6f 0f3e
00000030: edd2 a93d de73 36be ee25 52bd 5faa 01be
00000040: 73b5 15be cb8f dabd 908a 81bd 158c 103e
00000050: faeb 1abe 4dde a53d 170d a5bd 25d6 cdbd
00000060: e12c 04be 6a30 abbd ecd4 31be 564d eebd
00000070: 0029 7b3e 418a 2cbd 4997 01be bb14 87bd
00000080: e2b4 04be e8ae 0abe 5d10 2abd fb7e 22be
00000090: 6d2f eebd d0b6 08be 58d7 02be c1bb 273c
000000a0: 59c6 bcbd 0cf3 a93d f309 96bd f3c1 09be
000000b0: 3b52 d53c 3dcf d0bd 36a6 fcbb 31b3 733d
000000c0: c471 a13d 009e 853d 39a4 06bd 9a43 24be
000000d0: 707c c1bd 3b6c 253e d275 fc3d 307e 27be
000000e0: f16b 8d3d 66d4 5b3c cdce a23d cc37 3fbd
000000f0: 974b edbd a565 a83d 8323 8e3d ffff a6bd
00000100: c372 16be fd2a 8cbd ef68 adbd 9672 dc3d
00000110: d412 933d b140 99bd 7e9a 413e 8c94 583e
00000120: ffd2 4bbe 555b 6fbd 2167 d7bc 338c 46be
00000130: b4b6 b43c b230 523e 383e b03d 627b d8bd
00000140: 9b24 383e 262f 16bd 9dfd a43d e737 8bbd
00000150: 0279 e6bd 376c 88bd 1ba8 d7bd e44f 90bd
00000160: d9f7 fdbd 17f5 f0bd 80ce 48bc 81ab e2bd
00000170: 2d29 a0bc 206c 16be a339 c0bd 550c c5bd
00000180: 39a2 29be 9673 e0bd 3464 1cbe 11fe 893c
00000190: 7181 a33d 5afc 45bc 9b19 20be 3c81 a4bc
000001a0: e97b 0a3e 5142 11be 06e3 35be b59d 2cbd
000001b0: a776 05be 744d 1ebd 0e41 913d d8af ccbd
000001c0: a92b 04be 8f88 c0bd c203 b3bb 639b 79bd
000001d0: 5eb7 b23d 3aff 00be 613f a63d 4441 f4bd
000001e0: 9a9b f03d ed7a 1e3e 4c73 b53d aa8b c5bd
000001f0: 42fd e9bd 6782 bcbd af06 053a 06f8 843d
00000200: 2097 8b3d 1094 273e bf3b 24be 7d0c 8a3d
00000210: f328 aebc 82c2 893d 22cd e1bd 60e8 35be
00000220: 1793 973d d69d 333d 7399 53be b4cb adbd
00000230: 3c09 bcbd 7b69 02be a11a ad3d fe94 19bd
00000240: e786 703d 0a7f 113e 926d 06be 7a96 b03d
00000250: d3f0 cb3d dbf4 be3d 133d 0fbe c3ce e1bd
00000260: 633d a0bd ae86 b0bd 40d9 fbbd d544 653d
00000270: 247c c0bc 5f58 e23c ddb7 943c b4f1 5cbd
00000280: e303 903d 46a6 1cbd 71c8 cfbd f2d4 01be
00000290: ea71 31be 1dc4 7d3d fd5e bc3d 8721 11be
000002a0: 3f6c e1bc af01 f3bd 50dc 8d3d 0b92 9abd
000002b0: ae4a cb3d 3b3b 11be bf2d 1abe b17a 3f3c
000002c0: fa12 d3bd cb24 843d 24e9 243d fa31 f3bc
000002d0: d504 2d3e cbc0 243d 9088 f1bd 18c5 0abe
000002e0: 08b1 12be 68d9 b6bc dc6b d43d a453 98bd
000002f0: 8691 91bd ff08 9ebd 1840 d2bd 93d3 a33d
00000300: 5363 31be 019b ddbc a91f 48bd f20f 5a3e
00000310: a126 993d 102e 27be fd46 10be b707 b33d
00000320: dfd5 e7bd 86d8 343d b04f 03be eff1 02be
00000330: af3b c7bd 57f3 d4bc b990 1dbe ddf0 b03d
00000340: 5f90 3dbe be90 1ebe 373e a8bd f564 1bbe
00000350: fc12 693d 884e b23d b89e c53d 67ed bbbd
00000360: 5f89 3ebd 8b47 813d 826e 903d 5497 65bd
00000370: ae9f 103e 506f 9d3d abba 9b3d cac9 b03d
00000380: 6b3e 91bd cff3 a03d 39f2 cabc 1975 b0bd
00000390: 2091 cdbd 8b1f 92bd 151a 5d3d 9ee0 99bd
000003a0: a12f d33d d5d5 38bd 59aa bd3d ae66 483e
000003b0: 27ff 1f3a 3989 9b3d 00ac 793c d7c9 fa3c
000003c0: 30c7 efbd 4bcd a3bd 961f 37bd f8f2 f5bd
000003d0: c460 09be bc4d d23d 1cbf d9bc e7a2 21bc
000003e0: ab1f a53c 004d 27be eae0 f9bd 9c38 27be
000003f0: b4f5 9ebc 0857 03be 65d9 e43c deb7 1b3d

fc3.bias f4 [4]
-0.043215226 0.05318709 -0.024968723 -0.01399604
00000000: 7302 31bd b5da 593d 358b ccbc a64f 65bc
