checkpoint_critic.pth (torch_old, 542628 bytes, 5 tensors)

fcs1.weight f4 [400, 33]
-0.0114117265 -0.15296051 -0.71039236 0.28007033 -0.024998669 -0.0031228375 -0.15444812 0.11609229
-0.10214693 -0.017406082 -0.008130884 -0.16963264 -0.24445419 0.13588306 -0.020264547 0.1631453
0.10016116 -0.10607267 -0.0014501998 -0.12488218 0.35412455 0.14119361 -0.26548925 0.030874738
-0.24394123 0.08332682 0.07353419 -0.028216464 0.19558696 -0.00083180517 0.022233423 -0.013902999
-0.28630567 -0.16930431 0.2648586 -0.13690618 0.24049792 0.12809552 0.03480535 -0.3205584
-0.26795238 -0.00039341894 -0.7866794 0.090334654 0.13019761 -0.14039645 -0.094651036 0.31175417
-0.16046548 0.16120285 0.16045249 -0.057461005 0.13074557 0.020093651 0.25063455 -0.4829073
0.08313976 0.11302975 0.010075293 -0.036712192 0.6676537 0.16345376 -0.030832862 -0.60958207
-0.008160241 -0.3628471 0.16655278 -0.108365 -0.11608155 -0.17677066 -0.07016561 -0.048405293
0.0034060695 0.06455231 0.089801386 0.2014096 -0.024956705 -0.1619649 -0.011182655 -0.54062295
0.35090303 0.15567473 -0.2019238 -0.3024455 -0.058985915 0.0775203 0.09445467 -0.2297147
-0.33901638 -0.23154695 0.08790845 -0.009813389 0.4035841 0.13201317 0.050491013 0.03020164
-0.1788549 -0.037807174 0.78915703 -0.08592672 0.16947767 0.11801519 0.040707726 -0.024787411
0.20883745 -0.3748878 -0.04590271 -0.42843416 0.2892448 0.03627953 0.0032634242 -0.19654472
-0.31164154 0.14226481 -0.39575246 -0.2278556 -0.07683908 -0.18989246 -0.105068475 0.12739561
0.07732679 -0.215642 -0.08855784 -0.0025718184 -0.17022043 0.09734085 0.46405312 0.45626718
0.011583202 -0.40529975 0.0328047 0.9146081 -0.0779 -0.034604188 -0.55125207 -0.0048312377
0.44734472 -0.11377102 0.37015706 -0.20458712 -0.2761287 -0.42406204 0.16456042 0.16612212
-0.28522313 -0.028541714 0.14229599 -0.22494148 0.19553128 0.02910459 -0.10467134 -0.0055607813
0.14706391 -0.06739481 -0.48239204 0.087281875 -0.07311732 -0.12337659 -0.15536788 0.50427544
0.18671198 -0.038911633 -0.4649964 0.009421181 0.41031617 0.13340475 -0.1231895 0.15468165
-0.30407172 -0.4175661 -0.21563552 -0.2087895 -0.11499312 0.002029888 0.17823054 0.11872882
0.04303506 0.1951081 -0.14483187 0.0063962718 0.115020305 -0.0033221915 0.25878972 -0.051482264
0.008311806 0.06668943 0.075775534 0.0789302 -0.027560692 -0.011666962 -0.028133836 -0.6914472
0.10483264 0.16271399 0.04317802 -0.105498604 0.022667643 1.4986274 0.2632765 0.33066154
0.030965865 -0.14341077 -0.39172405 -0.3164696 0.09154132 -0.3405255 0.08245283 0.12722044
-0.23157349 0.42643905 0.14279889 -0.07558468 0.29714686 -0.22006577 -0.34811422 -0.2481153
0.06674728 0.34958154 0.07964918 0.2925811 -0.32142758 0.18650477 0.039320856 -0.15264457
-0.11531183 0.28926408 0.025479166 -0.019481016 -0.30355817 -0.003349036 -0.63651943 0.16843367
-0.1335252 0.16717072 -0.08916116 0.013492524 0.08979769 0.003638214 0.08988385 0.079612486
0.26812908 0.20684811 -0.008019927 -0.06147222 -0.14597961 0.0838459 0.011068684 0.3088193
0.012793207 -0.1675045 0.03952048 0.012714467 0.27358887 -0.09869699 0.10116273 -0.07075573
00000000: 40f8 3abc aea1 1cbe 46dc 35bf 6165 8f3e
00000010: 02ca ccbc 85a8 4cbb a627 1ebe cbc1 ed3d
00000020: 6932 d1bd 3397 8ebc 6637 05bc 2eb4 2dbe
00000030: 3352 7abe ee24 0b3e d601 a6bc 900f 273e
00000040: 4b21 cd3d a13c d9bd a114 beba 3ac2 ffbd
00000050: d04f b53e 0f95 103e 35ee 87be 05ed fc3c
00000060: bbcb 79be 40a7 aa3d 1899 963d 3726 e7bc
00000070: f347 483e 800d 5aba de22 b63c 68c9 63bc
00000080: a896 92be 1c5e 2dbe 8c9b 873e 2231 0cbe
00000090: 1645 763e 792b 033e 0e90 0e3d 3b20 a4be
000000a0: 0e31 89be cc43 ceb9 d263 49bf 6001 b93d
000000b0: 8652 053e 16c4 0fbe 67d8 c1bd 3e9e 9f3e
000000c0: 1051 24be 5c12 253e a84d 243e 3b5c 6bbd
000000d0: 2be2 053e 719b a43c 2c53 803e a03f f7be
000000e0: 2e45 aa3d 247c e73d d712 253c 865f 16bd
000000f0: 5aeb 2a3f 6c60 273e 3395 fcbc 920d 1cbf
00000100: 88b2 05bc 18c7 b9be d08c 2a3e 78ee ddbd
00000110: 2abc edbd 5e03 35be fdb2 8fbd a144 46bd
00000120: 5d38 5f3b 0034 843d cae9 b73d 513e 4e3e
00000130: 0172 ccbc 20da 25be 7437 37bc 4466 0abf
00000140: 90a9 b33e 3269 1f3e 1dc5 4ebe 23da 9abe
00000150: 379b 71bd f7c2 9e3d 7371 c13d 553a 6bbe
00000160: 8e93 adbe a51a 6dbe 5809 b43d 56c8 20bc
00000170: 93a2 ce3e 762e 073e aacf 4e3d 6e69 f73c
00000180: bd25 37be b2db 1abd 3206 4a3f 59fa afbd
00000190: 8e8b 2d3e f3b1 f13d 25bd 263d f80e cbbc
000001a0: 7cd9 553e 4bf1 bfbe 7b04 3cbd b95b dbbe
000001b0: e517 943e d899 143d 2cdf 553b 0543 49be
000001c0: 7b8f 9fbe dead 113e 11a0 cabe fa52 69be
000001d0: cf5d 9dbd 2b73 42be 242e d7bd ff73 023e
000001e0: 825d 9e3d 42d1 5cbe d05d b5bd f48b 28bb
000001f0: 444e 2ebe a45a c73d 5f98 ed3e da9b e93e
00000200: 78c7 3d3c 7383 cfbe 395e 063d c223 6a3f
00000210: 098a 9fbd 1fbd 0dbd db1e 0dbf 5c4f 9ebb
00000220: 5e0a e53e c800 e9bd 3a85 bd3e 497f 51be
00000230: be60 8dbe a91e d9be 8782 283e eb1b 2a3e
00000240: c408 92be 50d0 e9bc 0ab6 113e 0f57 66be
00000250: 5a39 483e c06c ee3c ed5d d6bd 3737 b6bb
00000260: ec97 163e 4a06 8abd 17fc f6be d7c0 b23d
00000270: 89be 95bd deac fcbd c218 1fbe 3218 013f
00000280: 6d31 3f3e ce61 1fbd 0214 eebe 4c5b 1a3c
00000290: f614 d23e 419b 083e c74a fcbd de64 1e3e
000002a0: 4aaf 9bbe 39cb d5be 8fcf 5cbe eacc 55be
000002b0: 8381 ebbd df07 053b 1182 363e 1828 f33d
000002c0: 8845 303d 6bca 473e ce4e 14be d197 d13b
000002d0: c48f eb3d 20b9 59bb 1680 843e 11df 52bd
000002e0: 3e2e 083c 7894 883d 3430 9b3d 28a6 a13d
000002f0: f6c6 e1bc c926 3fbc ee78 e6bc af02 31bf
00000300: 7fb2 d63d 7f9e 263e 6fdb 303d a70f d8bd
00000310: 7eb1 b93c 06d3 bf3f 2dcc 863e 784c a93e
00000320: 20ac fd3c 46da 12be 0e90 c8be 4e08 a2be
00000330: 047a bb3d 5c59 aebe 08dd a83d 1346 023e
00000340: 9a21 6dbe 3856 da3e df39 123e 24cc 9abd
00000350: a223 983e ec58 61be 073c b2be f011 7ebe
00000360: ccb2 883d 5afc b23e 1c1f a33d 31cd 953e
00000370: 2892 a4be 1bfb 3e3e e80e 213d dc4e 1cbe
00000380: 9c28 ecbd 6c1a 943e afb9 d03c a796 9fbc
00000390: fa6b 9bbe 807b 5bbb f0f2 22bf e079 2c3e
000003a0: d4ba 08be cd2e 2b3e 209a b6bd bf0f 5d3c
000003b0: dae7 b73d 1a6f 6e3b 0615 b83d df0b a33d
000003c0: 3748 893e fecf 533e 0366 03bc 4bca 7bbd
000003d0: ae7b 15be 66b7 ab3d 6d59 353c 901d 9e3e
000003e0: 999a 513c 4d86 2bbe 3ae0 213d 5750 503c
000003f0: d713 8c3e a621 cabd 682e cf3d 61e8 90bd

fcs1.bias f4 [400]
-0.07171923 -0.65087426 -0.1665507 -0.57861346 -0.5957404 0.011288624 -0.39771932 -0.8308088
-0.53902024 -0.21039167 -0.21429032 -0.5265403 -0.30597717 -0.42925295 -0.1968123 -0.13477607
-0.19410594 -0.21458599 -0.39714983 -0.49628717 -0.43126488 -0.450991 -0.5142537 -0.5903563
-0.5831306 -0.4021232 -0.37291458 -0.44672772 -0.691459 -0.15381362 -0.59526855 -0.2842139
-0.6595311 -0.6594026 -0.21375878 -0.12044795 -0.28897336 -0.30184904 -0.57353646 -0.67221946
-0.5377984 -0.4702614 -0.5296998 -0.6131764 -0.5759253 -0.479377 -0.5452142 -0.8926378
-0.38918805 -0.121019 -0.60528046 -0.06966086 -0.65202206 -0.75977385 -0.3682441 -0.76710254
-0.13816307 -0.30687758 -0.49870792 -0.67877096 -0.04155914 -0.17095937 -0.061109252 -0.39236674
-0.23956531 -0.20372888 -0.6054946 -0.5612442 -0.23337732 -0.45478478 -0.2893386 -0.13696378
-0.30839416 -0.3995269 -0.5763531 -0.28314808 -0.62174374 -0.753821 -0.16144817 -0.14904608
-0.28319943 -0.47491375 0.031635113 -0.74482363 0.0562388 -0.42852724 -0.28543732 -0.20913425
-0.32651743 -0.010802895 -0.7467469 -0.4860659 -0.41717032 -0.20716806 -0.3484216 -0.47673747
-0.26752073 -0.7767745 -0.5958395 -0.38366202 -0.06589229 -0.7870465 -0.66906935 -0.615529
-0.53527796 -0.44329888 0.055000078 -0.25613695 -0.30440906 -0.580305 -0.79977936 -0.69677466
-0.18186246 -0.5206253 -0.22448185 -0.41437772 -0.3156244 -0.5748606 -0.5164616 -0.23497118
-0.2531546 -0.74388397 -0.20617439 -0.5945175 -0.824104 -0.34908167 -0.45759615 -0.2546034
-0.61462814 -0.37878218 -0.22951397 -0.4916213 -0.331727 -0.5284649 -0.22636408 -0.37525257
-0.46798617 -0.37888163 -0.30029386 0.09280453 -0.37149578 -0.4637853 -0.36691368 -0.46188894
-0.39366308 -0.680828 -0.20432654 -0.019052703 -0.34468448 -0.42353064 -0.053439017 -0.6486121
-0.22492956 -0.20898412 -0.7030314 -0.7093313 -0.61676025 -0.17832747 -0.48690566 -0.35341257
-0.2923948 -0.32035336 -0.07782429 -0.42908013 0.12961482 0.0033730844 -0.41911167 -0.4393811
-0.64129514 -0.48887584 -0.10690729 -0.48116282 -0.1970069 -0.6288975 -0.52929777 -0.23907179
0.0153972935 -0.6236894 -0.52550507 -0.13242514 -0.49395743 -0.37384456 -0.5609459 -0.1656657
-0.5394946 -0.20529877 -0.6627946 -0.30629408 -0.5776171 -0.34373346 -0.28050828 -0.4286506
-0.52640396 -0.4340736 -0.23184381 -0.41905823 -0.2867643 -0.5492795 -0.33315146 -0.689649
-0.41771722 -0.35609546 -0.40187076 -0.04344312 -0.78944504 -0.58012944 -0.15382732 -0.92757064
-0.7164309 -0.47875875 -0.5511401 -0.5419402 0.2405883 -0.029772772 -0.14114656 -0.7750442
-0.8501653 -0.34178612 -0.4305958 -0.27354124 -0.43354657 -0.4340021 -0.12595078 -0.42273507
0.00018209562 -0.8202993 -0.07602863 -0.474502 -0.41617522 -0.664796 -0.28818938 -0.4606711
-0.294596 -0.5721028 -0.51153773 -0.005180321 -0.38924146 -0.31687742 -0.30127808 -0.7512797
-0.43989652 -0.42402333 -0.36180806 -0.31038386 -0.30753753 -0.52204245 -0.69788605 -0.8711945
-0.5261718 -0.10037649 -0.38956773 -0.16139796 -0.73510253 -0.110417545 -0.22528581 -0.5206634
00000000: 88e1 92bd b29f 26bf 448c 2abe 0320 14bf
00000010: 7182 18bf ecf3 383c dea1 cbbe e3af 54bf
00000020: 3bfd 09bf ea70 57be ec6e 5bbe 58cb 06bf
00000030: 0aa9 9cbe 0bc7 dbbe 2a89 49be bd02 0abe
00000040: b5c3 46be 6ebc 5bbe 3957 cbbe 5a19 febe
00000050: c0ce dcbe 4be8 e6be 21a6 03bf 9721 17bf
00000060: 0c48 15bf 18e3 cdbe a9ee bebe 7fb9 e4be
00000070: 7503 31bf 5181 1dbe 8563 18bf 7c84 91be
00000080: 08d7 28bf 9cce 28bf 95e3 5abe 6aad f6bd
00000090: 51f4 93be f58b 9abe 49d3 12bf 9316 2cbf
000000a0: 28ad 09bf 1ac6 f0be 689a 07bf 21f9 1cbf
000000b0: d76f 13bf e770 f5be 2893 0bbf e983 64bf
000000c0: a843 c7be cfd8 f7bd a9f3 1abf 5aaa 8ebd
000000d0: ebea 26bf 8a80 42bf 7e8a bcbe d560 44bf
000000e0: 9f7a 0dbe 0f1f 9dbe a556 ffbe efc3 2dbf
000000f0: eb39 2abd f90f 2fbe b24d 7abd 4be4 c8be
00000100: 9c50 75be 4e9e 50be b201 1bbf b3ad 0fbf
00000110: 77fa 6ebe 8dd9 e8be 3024 94be 3c40 0cbe
00000120: d7e5 9dbe ca8e ccbe e08b 13bf c9f8 90be
00000130: 992a 1fbf 6afa 40bf ab52 25be 899f 18be
00000140: 84ff 90be e527 f3be d293 013d c3ac 3ebf
00000150: a85a 663d ec67 dbbe d724 92be 4a27 56be
00000160: 4b2d a7be a0fe 30bc ce2a 3fbf a1dd f8be
00000170: 5997 d5be dd23 54be 5164 b2be ef16 f4be
00000180: 7af8 88be b2da 46bf f088 18bf 596f c4be
00000190: 89f2 86bd e17b 49bf 2148 2bbf 4f93 1dbf
000001a0: fa07 09bf 12f8 e2be c347 613d 6224 83be
000001b0: 81db 9bbe de8e 14bf 57be 4cbf d35f 32bf
000001c0: 273a 3abe b347 05bf 92de 65be 5129 d4be
000001d0: 8599 a1be 102a 13bf d436 04bf 499c 70be
000001e0: 7b9d 81be 2e6f 3ebf 611f 53be 4d32 18bf
000001f0: 7bf8 52bf d5ba b2be 0b4a eabe 605b 82be
00000200: 4558 1dbf bdef c1be b605 6bbe c9b5 fbbe
00000210: 1fd8 a9be 7a49 07bf fccb 67be 1b21 c0be
00000220: e29b efbe c6fc c1be 1ec0 99be 4d10 be3d
00000230: b234 bebe 4475 edbe 1cdc bbbe b57c ecbe
00000240: 358e c9be be4a 2ebf fa3a 51be 6a14 9cbc
00000250: 7c7a b0be 02d9 d8be dfe2 5abd 710b 26bf
00000260: ef53 66be efff 55be def9 33bf bc96 35bf
00000270: 00e4 1dbf 7a9b 36be b34b f9be 7ef2 b4be
00000280: c5b4 95be 5b05 a4be 5762 9fbd 64b0 dbbe
00000290: bfb9 043e f70e 5d3b ce95 d6be 8ff6 e0be
000002a0: eb2b 24bf ef4d fabe 36f2 dabd f95a f6be
000002b0: 2dbc 49be 6dff 20bf 0f80 07bf 3ccf 74be
000002c0: ee44 7c3c 1caa 1fbf 8087 06bf 759a 07be
000002d0: fde7 fcbe 8e68 bfbe 279a 0fbf 45a4 29be
000002e0: 511c 0abf d739 52be e8ac 29bf 94d2 9cbe
000002f0: b7de 13bf d5fd afbe c89e 8fbe 1778 dbbe
00000300: 69c2 06bf e53e debe 7768 6dbe cd8e d6be
00000310: c5d2 92be 959d 0cbf d492 aabe d68c 30bf
00000320: 08df d5be 2552 b6be 01c2 cdbe 6af1 31bd
00000330: 1219 4abf 5d83 14bf e984 1dbe 4575 6dbf
00000340: 0468 37bf de1f f5be 8517 0dbf 98bc 0abf
00000350: c85c 763e 07e6 f3bc b988 10be 4c69 46bf
00000360: 6fa4 59bf 97fe aebe 0d77 dcbe 990d 8cbe
00000370: d1f9 ddbe 8635 debe 3ef9 00be bb70 d8be
00000380: ecf0 3e39 23ff 51bf e6b4 9bbd edf1 f2be
00000390: eb14 d5be 1230 2abf 8f8d 93be 15dd ebbe
000003a0: 49d5 96be 5475 12bf 23f4 02bf afbf a9bb
000003b0: a84a c7be c23d a2be 1f41 9abe de53 40bf
000003c0: 1e3a e1be 9619 d9be e83e b9be a2ea 9ebe
000003d0: 8f75 9dbe 93a4 05bf a9a8 32bf 9a06 5fbf
000003e0: 32b3 06bf 3092 cdbd 6c75 c7be 8245 25be
000003f0: ae2f 3cbf 9822 e2bd 53b1 66be 324a 05bf

fc2.weight f4 [300, 404]
-0.0822186 0.009391351 0.0085948855 -0.030538272 -0.041240945 -0.02181987 0.04523911 0.0052085663
-0.02365011 -0.018284211 -0.033009876 -0.040393457 -0.064033195 -0.04527409 -0.032602888 -0.03406527
-0.029004969 -0.07100001 0.010370294 -0.045542058 -0.06456075 -0.06197297 0.043259755 0.032859433
-0.060793128 -0.05699933 0.0019166899 0.013283775 0.011853284 -0.009147505 -0.031372417 -0.060153015
-0.051824275 -0.012072516 -0.032093607 -0.03593642 -0.024803208 0.032056313 -0.0016321624 -0.021370556
-0.025580317 -0.035586 -0.019093452 -0.055088855 0.047766212 0.026854085 -0.03574826 -0.0155852055
0.018155953 -0.06796705 0.0068178223 -0.048084345 -0.020211425 -0.015397834 -0.06393182 -0.044719744
0.03931005 -0.020417837 -0.06002493 0.03591889 0.013792103 -0.046604667 -0.022499405 -0.00248876
0.01529124 -0.026510684 0.009236999 -0.014928009 0.047157526 -0.00953158 -0.033404753 0.026937317
0.0453283 -0.00018185975 -0.022900175 -0.06136471 0.003998608 -0.0642402 0.018273668 0.0020170186
0.037531704 0.018264329 0.0022767428 -0.03894734 -0.060014624 0.054416537 0.01808795 -0.026324952
0.026843129 -0.055985875 0.016543824 0.017436404 0.050838366 0.018536089 0.047855023 -0.056276895
0.023300055 -0.053325057 -0.059042897 -0.057858836 -0.064083904 0.03301287 -0.03551654 0.054792568
0.028600922 0.045515098 -0.023558825 -0.047184527 0.034802634 -0.052236073 -0.06865292 0.028687745
-0.07466278 -0.05215204 -0.0018634638 -0.071900494 -0.050471563 -0.072299115 -0.008145889 0.013381765
-0.0002716256 0.040513165 -0.089726605 0.031913172 -0.07302231 -0.07128123 0.01259691 0.024451941
0.013398943 0.03323959 -0.01030156 0.011830688 -0.046385933 -0.0012220801 0.012194351 0.03339286
0.018885516 0.015589318 -0.022665828 -0.042798933 -0.03842305 -0.03982573 -0.013786812 -0.062177163
-0.068604976 -0.029708164 -0.020852588 -0.057139874 0.035662524 -0.04056205 -0.0021775803 0.04481068
-0.05741348 -0.0361966 0.011588333 -0.0524022 -0.013929014 -0.011428522 -0.010791694 -0.0076415283
-0.0771737 -0.026262447 -0.059330147 -0.041849237 0.007539746 -0.029095512 -0.05884801 0.009313743
-0.029046789 0.040804904 -0.018836264 -0.002067037 0.0066700797 -0.05210268 0.005136389 0.021272328
-0.08275122 0.0059557664 -0.042659327 0.046616152 -0.05945813 0.025054682 -0.060228102 -0.004553112
-0.066961795 0.020215735 -0.02267088 -0.058133002 -0.040674616 0.0016812411 -0.05578235 0.003192413
-0.039585717 -0.00078309985 -0.04490159 0.045073092 0.046908505 -0.022818737 -0.029616263 0.02542335
-0.0328226 -0.021370849 -0.037417047 -0.04756367 0.03439948 -0.024006795 -0.030853072 -0.0016847894
-0.005826149 -0.009632517 -0.012315754 -0.054928824 0.0068999804 -0.05899833 -0.04446512 0.011188139
-0.046496432 -0.0035328246 -0.06575766 0.0373355 0.033670757 -0.066082336 -0.06795014 -0.023511406
-0.050785385 -0.026334055 -0.031602707 -0.005670301 -0.045009505 -0.0008876789 -0.081509896 -0.012733851
-0.057096474 -0.016442673 -0.051206168 -0.008709492 0.017303139 -0.03620512 -0.016859747 0.01998308
0.0025149947 0.016901286 0.009400909 0.053909093 -0.047689423 0.015612509 -0.020819763 0.0056050657
-0.06872915 -0.045799 -0.043581933 -0.0490275 -0.010601714 -0.019229323 0.030085782 -0.00965036
00000000: 3a62 a8bd 2ede 193c 90d1 0c3c 662b fabc
00000010: 44ec 28bd 96bf b2bc a54c 393d 9fac aa3b
00000020: e0bd c1bc c5c8 95bc 5d35 07bd 9c73 25bd
00000030: d623 83bd 5371 39bd 9b8a 05bd 0688 0bbd
00000040: d49b edbc 7468 91bd 2ae8 293c 4f8a 3abd
00000050: 6d38 84bd 5ed7 7dbd 2431 313d 9d97 063d
00000060: 3702 79bd 2178 69bd 7139 fb3a 31a4 593c
00000070: 4734 423c 6bdf 15bc 5d80 00bd 0263 76bd
00000080: b145 54bd cdcb 45bc 9674 03bd 1132 13bd
00000090: 1930 cbbc 7b4d 033d 48ee d5ba 4e11 afbc
000000a0: d08d d1bc a0c2 11bd df69 9cbc daa4 61bd
000000b0: 81a6 433d 19fd db3c c46c 12bd 1759 7fbc
000000c0: cbbb 943c 4f32 8bbd 0a68 df3b 17f4 44bd
000000d0: 6e92 a5bc 3247 7cbc b0ee 82bd 0d2c 37bd
000000e0: 9303 213d 4f43 a7bc b3dc 75bd b01f 133d
000000f0: 46f8 613c 89e4 3ebd ac50 b8bc 771a 23bb
00000100: 1c88 7a3c ef2c d9bc c856 173c 9c94 74bc
00000110: 4028 413d 582a 1cbc 6cd3 08bd a6ab dc3c
00000120: 2baa 393d 9bb1 3eb9 2699 bbbc 9059 7bbd
00000130: c106 833b 5e90 83bd a9b2 953c f52f 043b
00000140: d8ba 193d 139f 953c 6835 153b 3f87 1fbd
00000150: e5d1 75bd e0e3 5e3d 2e2d 943c 6da7 d7bc
00000160: 1fe6 db3c 7251 65bd ea86 873c cad6 8e3c
00000170: e43b 503d ffd8 973c a103 443d 9a82 66bd
00000180: c2df be3c 606b 5abd f7d6 71bd 63fd 6cbd
00000190: 6c3e 83bd 8138 073d cb79 11bd 2c6e 603d
000001a0: 7b4c ea3c 0a6e 3a3d 70fe c0bc 9044 41bd
000001b0: 358d 0e3d 7ef5 55bd e799 8cbd 9002 eb3c
000001c0: cde8 98bd 619d 55bd 783f f4ba 9140 93bd
000001d0: 45bb 4ebd 8f11 94bd 5676 05bc 313f 5b3c
000001e0: f968 8eb9 22f1 253d 95c2 b7bd 63b7 023d
000001f0: b98c 95bd e5fb 91bd 4563 4e3c 704f c83c
00000200: 3d87 5b3c 3c26 083d e0c7 28bc 81d5 413c
00000210: 2dff 3dbd 342e a0ba d1ca 473c f4c6 083d
00000220: ccb5 9a3c 576a 7f3c b0ad b9bc ef4d 2fbd
00000230: 7d61 1dbd 4e20 23bd 15e2 61bc 7bad 7ebd
00000240: c480 8cbd 895e f3bc 0cd3 aabc 800b 6abd
00000250: de12 123d 6424 26bd bcb5 0ebb 678b 373d
00000260: 662a 6bbd e342 14bd fedc 3d3c b0a3 56bd
00000270: 8536 64bc b23e 3bbc a5cf 30bc c965 fabb
00000280: 3f0d 9ebd 5824 d7bc 2b04 73bd 1b6a 2bbd
00000290: f90f f73b b659 eebc 9c0a 71bd ab98 183c
000002a0: 88f3 edbc 0b23 273d 824e 9abc 2077 07bb
000002b0: af90 da3b 9f69 55bd 274f a83b 4e43 ae3c
000002c0: 7979 a9bd 9728 c33b 8cbb 2ebd 94f0 3e3d
000002d0: 5e8a 73bd 7a3f cd3c beb1 76bd 4632 95bb
000002e0: 4423 89bd 789b a53c 48b8 b9bc df1c 6ebd
000002f0: 6d9a 26bd 175d dc3a 097c 64bd cd37 513b
00000300: a224 22bd f148 4dba bbea 37bd 909e 383d
00000310: 2223 403d 5cee babc ce9d f2bc a144 d03c
00000320: fe70 06bd eb11 afbc 9e42 19bd 1fd2 42bd
00000330: 78e6 0c3d e6a9 c4bc 95bf fcbc 27d4 dcba
00000340: 48e9 bebb b4d1 1dbc 04c8 49bc 0cfd 60bd
00000350: 3b19 e23b 3ca8 71bd 0f21 36bd 754e 373c
00000360: 0b73 3ebd f686 67bb f4ab 86bd 1ced 183d
00000370: 59ea 093d 2d56 87bd 7129 8bbd fe9a c0bc
00000380: 5604 50bd 84ba d7bc d771 01bd efcd b9bb
00000390: e35b 38bd 1fb3 68ba a9ee a6bd a4a1 50bc
000003a0: fedd 69bd c9b2 86bc 8fbd 51bd 42b2 0ebc
000003b0: 50bf 8d3c d24b 14bd 741d 8abc 8eb3 a33c
000003c0: 9cd2 243b 9174 8a3c 4506 1a3c c8cf 5c3d
000003d0: fc55 43bd 9ccb 7f3c 358e aabc b3aa b73b
000003e0: dec1 8cbd bb97 3bbd f882 32bd 0fd1 48bd
000003f0: d0b2 2dbc d086 9dbc 7576 f63c 8b1c 1ebc

fc2.bias f4 [300]
-0.08464896 -0.0660195 -0.033388298 -0.05991757 -0.076834686 -7.1822415e-06 -0.10091263 -0.059489474
-0.117947705 -0.020835586 -0.050455242 -0.012698193 -0.07975931 -0.11820016 -0.058272 -0.058110658
-0.02094714 -0.033405576 -0.040037323 -0.06518746 -0.03548066 -0.08349519 -0.013010065 -0.060526773
0.0018167003 -0.025307035 -0.093038626 0.5700586 -0.061746564 0.008480106 -0.031923108 -0.06375853
-0.05579763 -0.08437775 -0.05038953 0.3271707 -0.034069598 -0.0811798 0.0003481427 -0.1129456
-0.05888779 0.008187098 -0.04603739 -0.010306176 -0.10329649 -0.071144715 -0.081915215 -0.021034714
-0.03830891 0.027739296 -0.0055632563 0.08332715 -0.073628105 -0.070350885 -0.07263377 -0.03806693
-0.036717355 -0.084458604 -0.048127692 -0.025757937 -0.031191997 -0.0250149 -0.06525042 -0.0060922704
0.0051818034 -0.066450335 -0.020573093 -0.016299836 -0.07464928 -0.075051084 -0.045635812 0.004495925
-0.016996965 -0.020321202 -0.086552404 -0.05068807 0.01791001 -0.032605924 0.015454453 0.2854506
-0.023440488 -0.058257397 -0.02333992 0.37955263 0.011260469 -0.033800114 -0.07334846 -0.034883905
-0.06997172 -0.095457666 -0.0916645 -0.061403606 0.013075643 -0.039768014 -0.04412022 -0.047058333
-0.041033514 -0.038662132 -0.006654403 -0.028842628 -0.07036932 0.006514178 -0.038858294 -0.0224095
-0.035408657 -0.08457177 -0.005525232 0.0010368499 -0.002477945 -0.015632225 -0.0072940914 -0.021323616
-0.058214158 -0.062909134 -0.023461489 -0.0276501 -0.09279729 -0.05441122 -0.09120706 -0.012118064
-0.054405108 -0.020104285 0.57083994 -0.0027909165 -0.03494833 -0.090445556 -0.0013196582 0.0038828545
-0.06135802 -0.019786615 -0.031619854 -0.014103868 -0.013030028 -0.09373245 -0.017598959 -0.03242285
-0.050918825 -0.044451047 -0.015368902 -0.042431735 -0.052420806 -0.096672885 -0.042493414 -0.09961059
-0.0018332518 -0.011663961 -0.02806212 0.25536028 -0.028287165 -0.05432525 0.027302371 -0.028426139
-0.030074582 -0.11557565 -0.035916537 -0.029033769 -0.028509524 -0.094768636 0.487249 -0.029190576
0.008811915 -0.006431859 -0.06955027 0.021547355 -0.06286622 -0.014445388 -0.00990012 -0.053598665
0.45436588 -0.045866575 -0.050782178 -0.022476302 -0.066966854 0.014653243 -0.05555202 -0.086413644
-0.088914126 -0.1031949 -0.022350466 0.002506346 -0.057328347 -0.107180916 -0.041936193 -0.08957197
-0.03352714 -0.039349455 -0.0597241 -0.07885746 -0.074794516 -0.034911744 0.021269957 -0.06864805
-0.06280592 -0.025877131 -0.06518572 -0.07169012 -0.10303995 -0.031757317 -0.0046172026 -0.04396753
-0.057622477 -0.08576283 -0.04867726 -0.016556231 -0.047680102 -0.09946941 -0.03167711 -0.050966207
0.28789592 0.0048243557 -0.104585595 -0.012009585 -0.08428707 -0.070812605 -0.021081584 -0.031179618
-0.013924041 -0.0718755 -0.011176035 -0.058475774 -0.0628793 -0.076084636 -0.03784033 -0.06556401
-0.023914402 -0.060920846 -0.0714855 -0.10190881 -0.094943 -0.07602731 -0.0338706 -0.06280261
-0.026367795 -0.056231517 -0.10202377 -0.05741972 0.0008643734 -0.06945764 -0.036258273 0.008516231
-0.06326693 -0.045392383 -0.081722684 -0.049336273 -0.01807844 -0.04713092 -0.048339747 -0.10562312
-0.051714294 -0.012497193 0.016512746 -0.053851027 0.44545677 -0.07786939 -0.02352881 -0.10860668
00000000: 6f5c adbd 3b35 87bd 2bc2 08bd 206c 75bd
00000010: 815b 9dbd fcfe f0b6 48ab cebd 3cab 73bd
00000020: 918e f1bd 64af aabc 28aa 4ebd 150c 50bc
00000030: d958 a3bd ed12 f2bd 9fae 6ebd 7105 6ebd
00000040: 5699 abbc 49d4 08bd 2dfe 23bd 0181 85bd
00000050: 2b54 11bd 87ff aabd 2b28 55bc ecea 77bd
00000060: 591e ee3a b350 cfbc 098b bebd 5cef 113f
00000070: f7e9 7cbd 24f0 0a3c cec1 02bd d593 82bd
00000080: 0e8c 64bd 3ece acbd 4065 4ebd eb82 a73e
00000090: 908c 0bbd 9841 a6bd ec86 b639 0650 e7bd
000000a0: 5334 71bd 2e23 063c b491 3cbd 3cdb 28bc
000000b0: 1c8d d3bd 52b4 91bd 2ac3 a7bd fe50 acbc
000000c0: cee9 1cbd 853d e33c fa4b b6bb 6da7 aa3d
000000d0: 55ca 96bd 2014 90bd 04c1 94bd 12ec 1bbd
000000e0: f064 16bd a2f8 acbd 8b21 45bd 4f02 d3bc
000000f0: 5c86 ffbc 0cec ccbc 03a2 85bd aba1 c7bb
00000100: 1ecc a93b 1d17 88bd e788 a8bc 3c87 85bc
00000110: b9e1 98bd 62b4 99bd 9eec 3abd 8d52 933b
00000120: 383d 8bbc a678 a6bc 6342 b1bd 4b9e 4fbd
00000130: 03b8 923c ca8d 05bd ad34 7d3c 9526 923e
00000140: 4406 c0bc 4f9f 6ebd 5c33 bfbc b954 c23e
00000150: d57d 383c fd71 0abd b837 96bd 6de2 0ebd
00000160: 554d 8fbd 4f7f c3bd 99ba bbbd 5982 7bbd
00000170: 393b 563c c9e3 22bd 67b7 34bd 3dc0 40bd
00000180: c212 28bd 2f5c 1ebd 2e0d dabb 6047 ecbc
00000190: ca1d 90bd e374 d53b e029 1fbd 2194 b7bc
000001a0: ab08 11bd f733 adbd 010d b5bb e9e6 873a
000001b0: 0565 22bb 270f 80bc 4603 efbb ddae aebc
000001c0: f871 6ebd 81d6 80bd 4f32 c0bc 7682 e2bc
000001d0: 810c bebd 4dde 5ebd c4ca babd d88a 46bc
000001e0: e4d7 5ebd beb1 a4bc 9122 123f cfe7 36bb
000001f0: fb25 0fbd 853b b9bd 62f8 acba 7d77 7e3b
00000200: 8c52 7bbd 8a17 a2bc d283 01bd e913 67bc
00000210: e67b 55bc ccf6 bfbd b12b 90bc d3cd 04bd
00000220: 4290 50bd 4d12 36bd d9cd 7bbc e6cc 2dbd
00000230: 33b7 56bd 6ffc c5bd 930d 2ebd a300 ccbd
00000240: b949 f0ba 331a 3fbc 88e2 e5bc 95be 823e
00000250: 7cba e7bc 2784 5ebd 39a9 df3c efdd e8bc
00000260: f85e f6bc edb2 ecbd 381d 13bd 3ad8 edbc
00000270: ce8c e9bc 0f16 c2bd b378 f93e 1321 efbc
00000280: da5f 103c 58c2 d2bb 5f70 8ebd 1484 b03c
00000290: 01c0 80bd 59ac 6cbc 1d34 22bc 468a 5bbd
000002a0: a5a2 e83e 97de 3bbd f900 50bd 3920 b8bc
000002b0: eb25 89bd 2814 703c 848a 63bd a3f9 b0bd
000002c0: 9c18 b6bd d957 d3bd 5318 b7bc 8241 243b
000002d0: 21d1 6abd ab81 dbbd 49c5 2bbd 8271 b7bd
000002e0: c153 09bd e52c 21bd 42a1 74bd 0580 a1bd
000002f0: de2d 99bd 9eff 0ebd 553e ae3c 5997 8cbd
00000300: 64a0 80bd 47fc d3bc 1780 85bd 45d2 92bd
00000310: 9c06 d3bd f613 02bd e74b 97bb 4c17 34bd
00000320: 8c05 6cbd 6ca4 afbd ce61 47bd efa0 87bc
00000330: 364c 43bd 9eb6 cbbd dbbf 01bd f1c1 50bd
00000340: 1867 933e a115 9e3b f930 d6bd dac3 44bc
00000350: b39e acbd 3306 91bd 49b3 acbc 666c ffbc
00000360: a921 64bc 7633 93bd b01b 37bc 4b84 6fbd
00000370: ddc6 80bd 43d2 9bbd 76fe 1abd 6c46 86bd
00000380: 23e8 c3bc 2388 79bd fd66 92bd 91b5 d0bd
00000390: 7a71 c2bd 35b4 9bbd e6bb 0abd a89e 80bd
000003a0: 4601 d8bc 0553 66bd d7f1 d0bd f130 6bbd
000003b0: 1e97 623a cf3f 8ebd 8e83 14bd a987 0b3c
000003c0: 1892 81bd 5ded 39bd 395e a7bd d514 4abd
000003d0: 3d19 94bc 5a0c 41bd e6ff 45bd ef50 d8bd
000003e0: 5ed2 53bd 07c1 4cbc bd45 873c e592 5cbd
000003f0: e912 e43e fd79 9fbd 7ebf c0bc 2e6d debd

fc3.weight f4 [1, 300]
0.014380431 0.003421336 0.012857602 0.005820294 -0.024546282 -0.006081844 0.002290062 0.009437214
0.027854698 0.0059990645 0.03085285 -0.019312598 -0.0027088674 -0.02121336 0.00988772 -0.027052103
0.015900237 -0.0058794743 -0.019652104 -0.011082897 0.004315467 0.029426217 0.002834803 0.008373449
-0.024361819 -0.005467125 0.011838228 0.028107777 -0.019840194 -0.022415975 -0.012644892 -0.0003088974
0.03032897 0.028453054 -0.008851547 0.042751033 0.0014177249 -0.0018706997 0.0077784797 -0.023384875
0.022726258 0.029362138 -0.010608992 0.0293452 -0.007834416 0.002408037 0.012100785 0.011624043
-0.007485032 -0.0052083614 0.0035087203 0.090579405 -0.003333967 0.004269288 -0.023827761 -0.004111331
0.0065869982 -0.024858117 -0.019899 0.020308938 0.0019083302 -0.00026708262 0.009284373 -0.0034381775
0.004444153 -0.027046736 0.0029418613 -0.013762681 -0.004361016 -0.01469678 0.027800726 -0.012252651
-0.013679795 0.00941967 -0.01222731 -0.031020904 0.010284003 -0.02741623 0.005227187 0.061083924
0.0067895446 -0.006129644 0.020504719 0.045243178 -0.01536128 -0.030459573 0.043779034 -0.0065034637
-0.0048914063 -0.012230918 0.01744078 0.013742827 -0.008423778 -0.013759507 -0.02307064 -0.009506829
-0.0011668333 0.019771583 -0.016509978 0.001208324 -0.0017738385 0.006525921 -0.0043306113 -0.013475397
-0.012279829 -0.029256575 0.013234818 0.00027303112 -0.025724735 -0.005863222 -0.014050245 0.010350603
0.018868363 -0.00837835 -0.024595248 -0.030168707 0.0155399665 0.0011482395 0.003405978 -0.026437243
0.0024607126 0.008134558 0.02833958 -0.0058386894 -0.028497009 0.002848618 0.00048803262 -0.00057532586
-0.0073334454 -0.025621448 -0.00844955 0.023060149 0.020725342 0.015698425 -0.010022855 -0.012623739
-0.0056649586 0.02320234 -0.0037140376 -0.010416045 -0.007242505 0.006385552 0.028992306 0.02693737
0.006546548 0.0033789596 -0.020426914 0.04484424 -0.009695054 -0.015533302 0.0029870202 0.020412507
-0.0113414675 -0.010512247 -0.011176345 0.029582769 -0.017355183 0.031968255 0.029043969 -0.03025876
0.003108808 0.012055212 -0.0174922 0.0035578297 -0.0048422134 0.0035783097 0.008270276 0.018908245
0.026878785 0.023774467 0.014424151 0.006959905 -0.022686802 -0.022732424 0.0076354635 -0.022135427
-0.023098907 0.014980155 -0.010582785 0.015266431 0.0016544332 0.030359078 -0.011446285 -0.015415326
-0.005431505 -0.0051666205 0.023856314 0.030321622 0.0024131332 -0.0021288414 0.025660638 0.0170315
-0.029963784 0.0069864737 -0.03629381 0.012940139 0.015140385 0.0020059485 -0.033751737 -0.028668279
-0.01675823 -0.0034671829 -0.006684648 0.020557027 0.009419131 -0.008862755 0.03089843 0.025418606
0.039249063 -0.0030124958 0.026457494 0.0135083925 -0.0125954775 0.020985197 0.022382544 -0.0071464335
-0.002380069 0.021844035 0.019187883 0.00613286 0.017581418 -0.02001438 0.027896117 0.00034911622
-0.009568953 0.023026854 0.0052648964 -0.02745248 -0.029733222 -0.008347632 -0.025856566 -0.005308785
-0.012431462 0.009957895 0.00835546 0.0146282185 -0.021251006 -0.009155079 -0.0033435444 0.009139153
0.004608561 -0.029630147 -0.019756202 0.018637374 0.0031965005 -0.01795322 0.02642953 0.007310927
-0.02050822 0.01787574 -0.0022378156 0.0018227879 0.011096009 -0.008689089 -0.005947773 0.018635968
00000000: e69b 6b3c 7e38 603b b1a8 523c 2ab8 be3b
00000010: 4915 c9bc 354a c7bb dd14 163b 8b9e 1a3c
00000020: 892f e43c cd93 c43b 1ebf fc3c 7435 9ebc
00000030: 4187 31bb a4c7 adbc 1b00 223c 5f9c ddbc
00000040: 3741 823c 9ba8 c0bb 73fd a0bc 0a95 35bc
00000050: c368 8d3b 400f f13c 1ac8 393b ca30 093c
00000060: 7092 c7bc 9225 b3bb 21f5 413c 4842 e63c
00000070: e787 a2bc b5a1 b7bc 852c 4fbc 82f3 a1b9
00000080: 7674 f83c 6116 e93c 1406 11bc b51b 2f3d
00000090: f4d2 b93a 4432 f5ba 9ee2 fe3b a391 bfbc
000000a0: 6b2c ba3c de88 f03c 56d1 2dbc 5865 f03c
000000b0: ec5b 00bc 28d0 1d3b 5f42 463c c572 3e3c
000000c0: 0045 f5bb e7aa aabb 8ff2 653b b281 b93d
000000d0: af7e 5abb 62e5 8b3b 7032 c3bc 58b8 86bb
000000e0: bfd7 d73b 40a3 cbbc 3a03 a3bc ee5e a63c
000000f0: f020 fa3a 3907 8cb9 7c1d 183c 0c53 61bb
00000100: 42a0 913b 1e91 ddbc 3ecc 403b de7c 61bc
00000110: dbe6 8ebb c3ca 70bc 59be e33c 58bf 48bc
00000120: 3821 60bc f654 1a3c 0e55 48bc 8d1f febc
00000130: 3c7e 283c 0098 e0bc d348 ab3b 2333 7a3d
00000140: d47a de3b 2edb c8bb 83f9 a73c e950 393d
00000150: e1ad 7bbc 5b86 f9bc a551 333d 021b d5bb
00000160: 1748 a0bb 3064 48bc f7df 8e3c 9829 613c
00000170: e303 0abc 8e6f 61bc a4fe bcbc 88c2 1bbc
00000180: 6ef0 98ba 04f8 a13c ef3f 87bc a060 9e3a
00000190: 2580 e8ba 65d7 d53b cde7 8dbb e9c7 5cbc
000001a0: 5631 49bc 7cab efbc dad6 583c 9e25 8f39
000001b0: aebc d2bc 4520 c0bb 0033 66bc 9395 293c
000001c0: d391 9a3c 5945 09bc f97b c9bc 5d24 f7bc
000001d0: 589b 7e3c 8680 963a d436 5f3b eb92 d8bc
000001e0: e843 213b cf46 053c 6828 e83c 7a52 bfbb
000001f0: 8f72 e9bc e1af 3a3b a1de ff39 77d1 16ba
00000200: 664d f0bb 12e4 d1bc fb6f 0abc a3e8 bc3c
00000210: 31c8 a93c fc99 803c e736 24bc cdd3 4ebc
00000220: 1ea1 b9bb d512 be3c 3667 73bb 0fa8 2abc
00000230: 8952 edbb e53d d13b 4681 ed3c c2ab dc3c
00000240: 6d84 d63b 8971 5d3b 5856 a7bc 98ae 373d
00000250: 01d8 1ebc 647f 7ebc e2c1 433b 2138 a73c
00000260: 90d1 39bc 8f3b 2cbc fd1c 37bc 9057 f23c
00000270: 752c 8ebc 25f1 023d 9eed ed3c 38e1 f7bc
00000280: 25bd 4b3b 3983 453c cd4b 8fbc 7a2a 693b
00000290: 6eab 9ebb 1382 6a3b 0d80 073c 77e5 9a3c
000002a0: e630 dc3c acc2 c23c 4653 6c3c ea0f e43b
000002b0: acd9 b9bc 5939 babc e932 fa3b 5b55 b5bc
000002c0: eb39 bdbc 536f 753c 6b63 2dbc 0d20 7a3c
000002d0: 91d9 d83a 9ab3 f83c 3389 3bbc 9090 7cbc
000002e0: c4fa b1bb c14c a9bb 516e c33c 0d65 f83c
000002f0: a825 1e3b 0884 0bbb 4236 d23c a585 8b3c
00000300: 9c76 f5bc caee e43b d1a8 14bd e002 543c
00000310: 610f 783c 3b76 033b 433f 0abd bdd9 eabc
00000320: 8e48 89bc ad39 63bb e40a dbbb 3667 a83c
00000330: b352 1a3c 1735 11bc b41e fd3c ae3a d03c
00000340: a0c3 203d 4b6d 45bb 63bd d83c 4e52 5d3c
00000350: 435d 4ebc 26e9 ab3c 995b b73c a12c eabb
00000360: effa 1bbb 43f2 b23c e82f 9d3c 29f6 c83b
00000370: e806 903c 32f5 a3bc 6686 e43c 9609 b739
00000380: 19c7 1cbc d0a2 bc3c 2785 ac3b 06e4 e0bc
00000390: 1693 f3bc 82c4 08bc 26d1 d3bc 51f5 adbb
000003a0: 55ad 4bbc 7026 233c 57e5 083c 32ab 6f3c
000003b0: 9716 aebc 2fff 15bc 5e1f 5bbb 63bc 153c
000003c0: 6903 973b ecba f2bc c2d7 a1bc 68ad 983c
000003d0: 617c 513b a212 93bc be82 d83c 8090 ef3b
000003e0: db00 a8bc 2570 923c 51a8 12bb 9dea ee3a
000003f0: 09cc 353c ae5c 0ebc 89e5 c2bb 75aa 983c
